#map = affine_map<(d0, d1) -> (d0, d1)>
#map1 = affine_map<(d0, d1) -> (d1)>
module attributes {torch.debug_module_name = "FeedForwardNet"} {
  ml_program.global private mutable @global_seed(dense<0> : tensor<i64>) : tensor<i64>
  func.func @forward(%arg0: tensor<8748x91xf32>) -> tensor<8748x11xf32> {
    %cst = arith.constant dense<"…"> : tensor<100x91xf32>
    %cst_0 = arith.constant 0.000000e+00 : f32
    %cst_1 = arith.constant dense<[… > : tensor<100xf32>
    %cst_2 = arith.constant dense<"…"> : tensor<11x100xf32>
    %cst_3 = arith.constant dense<[-0.0111629721, 0.0987016484, -0.050993707, -0.048310712, 0.110214874, 0.0880822911, 0.120780185, 0.0950000584, 0.0308808666, 0.0699572116, 0.0857323929]> : tensor<11xf32>
    %0 = tensor.empty() : tensor<91x100xf32>
    %transposed = linalg.transpose ins(%cst : tensor<100x91xf32>) outs(%0 : tensor<91x100xf32>) permutation = [1, 0] 
    %1 = tensor.empty() : tensor<8748x100xf32>
    %2 = linalg.fill ins(%cst_0 : f32) outs(%1 : tensor<8748x100xf32>) -> tensor<8748x100xf32>
    %3 = linalg.matmul ins(%arg0, %transposed : tensor<8748x91xf32>, tensor<91x100xf32>) outs(%2 : tensor<8748x100xf32>) -> tensor<8748x100xf32>
    %4 = linalg.generic {indexing_maps = [#map, #map1, #map], iterator_types = ["parallel", "parallel"]} ins(%3, %cst_1 : tensor<8748x100xf32>, tensor<100xf32>) outs(%1 : tensor<8748x100xf32>) {
    ^bb0(%in: f32, %in_5: f32, %out: f32):
      %12 = arith.addf %in, %in_5 : f32
      linalg.yield %12 : f32
    } -> tensor<8748x100xf32>
    %5 = linalg.generic {indexing_maps = [#map, #map], iterator_types = ["parallel", "parallel"]} ins(%4 : tensor<8748x100xf32>) outs(%1 : tensor<8748x100xf32>) {
    ^bb0(%in: f32, %out: f32):
      %12 = arith.cmpf ugt, %in, %cst_0 : f32
      %13 = arith.select %12, %in, %cst_0 : f32
      linalg.yield %13 : f32
    } -> tensor<8748x100xf32>
    %6 = tensor.empty() : tensor<100x11xf32>
    %transposed_4 = linalg.transpose ins(%cst_2 : tensor<11x100xf32>) outs(%6 : tensor<100x11xf32>) permutation = [1, 0] 
    %7 = tensor.empty() : tensor<8748x11xf32>
    %8 = linalg.fill ins(%cst_0 : f32) outs(%7 : tensor<8748x11xf32>) -> tensor<8748x11xf32>
    %9 = linalg.matmul ins(%5, %transposed_4 : tensor<8748x100xf32>, tensor<100x11xf32>) outs(%8 : tensor<8748x11xf32>) -> tensor<8748x11xf32>
    %10 = linalg.generic {indexing_maps = [#map, #map1, #map], iterator_types = ["parallel", "parallel"]} ins(%9, %cst_3 : tensor<8748x11xf32>, tensor<11xf32>) outs(%7 : tensor<8748x11xf32>) {
    ^bb0(%in: f32, %in_5: f32, %out: f32):
      %12 = arith.addf %in, %in_5 : f32
      linalg.yield %12 : f32
    } -> tensor<8748x11xf32>
    %11 = linalg.generic {indexing_maps = [#map, #map], iterator_types = ["parallel", "parallel"]} ins(%10 : tensor<8748x11xf32>) outs(%7 : tensor<8748x11xf32>) {
    ^bb0(%in: f32, %out: f32):
      %12 = arith.cmpf ugt, %in, %cst_0 : f32
      %13 = arith.select %12, %in, %cst_0 : f32
      linalg.yield %13 : f32
    } -> tensor<8748x11xf32>
    return %11 : tensor<8748x11xf32>
  }
}
