#map = affine_map<(d0) -> (d0)>
module attributes {torch.debug_module_name = "CldFracNet"} {
  ml_program.global private mutable @global_seed(dense<0> : tensor<i64>) : tensor<i64>
  func.func @forward(%arg0: tensor<72xf32>, %arg1: tensor<72xf32>) -> (tensor<72xf32>, tensor<72xf32>) {
    %cst = arith.constant dense<"…"> : tensor<64x72xf32>
    %cst_0 = arith.constant 0.000000e+00 : f32
    %cst_1 = arith.constant 1.000000e+00 : f32
    %cst_2 = arith.constant 5.000000e-01 : f64
    %cst_3 = arith.constant dense<[… > : tensor<64xf32>
    %cst_4 = arith.constant dense<"…"> : tensor<72x64xf32>
    %cst_5 = arith.constant dense<[… > : tensor<72xf32>
    %cst_6 = arith.constant dense<"…"> : tensor<64x144xf32>
    %cst_7 = arith.constant dense<[… > : tensor<64xf32>
    %cst_8 = arith.constant dense<"…"> : tensor<72x64xf32>
    %cst_9 = arith.constant dense<[… > : tensor<72xf32>
    %0 = tensor.empty() : tensor<72x64xf32>
    %transposed = linalg.transpose ins(%cst : tensor<64x72xf32>) outs(%0 : tensor<72x64xf32>) permutation = [1, 0] 
    %1 = tensor.empty() : tensor<64xf32>
    %2 = linalg.fill ins(%cst_0 : f32) outs(%1 : tensor<64xf32>) -> tensor<64xf32>
    %3 = linalg.vecmat ins(%arg0, %transposed : tensor<72xf32>, tensor<72x64xf32>) outs(%2 : tensor<64xf32>) -> tensor<64xf32>
    %4 = linalg.generic {indexing_maps = [#map, #map, #map], iterator_types = ["parallel"]} ins(%3, %cst_3 : tensor<64xf32>, tensor<64xf32>) outs(%1 : tensor<64xf32>) {
    ^bb0(%in: f32, %in_13: f32, %out: f32):
      %21 = arith.addf %in, %in_13 : f32
      linalg.yield %21 : f32
    } -> tensor<64xf32>
    %5 = linalg.generic {indexing_maps = [#map, #map], iterator_types = ["parallel"]} ins(%4 : tensor<64xf32>) outs(%1 : tensor<64xf32>) {
    ^bb0(%in: f32, %out: f32):
      %21 = arith.cmpf ugt, %in, %cst_0 : f32
      %22 = arith.select %21, %in, %cst_0 : f32
      linalg.yield %22 : f32
    } -> tensor<64xf32>
    %6 = tensor.empty() : tensor<64x72xf32>
    %transposed_10 = linalg.transpose ins(%cst_4 : tensor<72x64xf32>) outs(%6 : tensor<64x72xf32>) permutation = [1, 0] 
    %7 = tensor.empty() : tensor<72xf32>
    %8 = linalg.fill ins(%cst_0 : f32) outs(%7 : tensor<72xf32>) -> tensor<72xf32>
    %9 = linalg.vecmat ins(%5, %transposed_10 : tensor<64xf32>, tensor<64x72xf32>) outs(%8 : tensor<72xf32>) -> tensor<72xf32>
    %10 = linalg.generic {indexing_maps = [#map, #map, #map], iterator_types = ["parallel"]} ins(%9, %cst_5 : tensor<72xf32>, tensor<72xf32>) outs(%7 : tensor<72xf32>) {
    ^bb0(%in: f32, %in_13: f32, %out: f32):
      %21 = arith.addf %in, %in_13 : f32
      linalg.yield %21 : f32
    } -> tensor<72xf32>
    %11 = linalg.generic {indexing_maps = [#map, #map], iterator_types = ["parallel"]} ins(%10 : tensor<72xf32>) outs(%7 : tensor<72xf32>) {
    ^bb0(%in: f32, %out: f32):
      %21 = arith.negf %in : f32
      %22 = math.exp %21 : f32
      %23 = arith.addf %22, %cst_1 : f32
      %24 = arith.divf %cst_1, %23 : f32
      linalg.yield %24 : f32
    } -> tensor<72xf32>
    %12 = tensor.empty() : tensor<72xi1>
    %13 = linalg.generic {indexing_maps = [#map, #map], iterator_types = ["parallel"]} ins(%11 : tensor<72xf32>) outs(%12 : tensor<72xi1>) {
    ^bb0(%in: f32, %out: i1):
      %21 = arith.extf %in : f32 to f64
      %22 = arith.cmpf ogt, %21, %cst_2 : f64
      linalg.yield %22 : i1
    } -> tensor<72xi1>
    %14 = linalg.generic {indexing_maps = [#map, #map], iterator_types = ["parallel"]} ins(%13 : tensor<72xi1>) outs(%7 : tensor<72xf32>) {
    ^bb0(%in: i1, %out: f32):
      %21 = arith.uitofp %in : i1 to f32
      linalg.yield %21 : f32
    } -> tensor<72xf32>
    %concat = tensor.concat dim(0) %arg1, %14 : (tensor<72xf32>, tensor<72xf32>) -> tensor<144xf32>
    %15 = tensor.empty() : tensor<144x64xf32>
    %transposed_11 = linalg.transpose ins(%cst_6 : tensor<64x144xf32>) outs(%15 : tensor<144x64xf32>) permutation = [1, 0] 
    %16 = linalg.vecmat ins(%concat, %transposed_11 : tensor<144xf32>, tensor<144x64xf32>) outs(%2 : tensor<64xf32>) -> tensor<64xf32>
    %17 = linalg.generic {indexing_maps = [#map, #map, #map], iterator_types = ["parallel"]} ins(%16, %cst_7 : tensor<64xf32>, tensor<64xf32>) outs(%1 : tensor<64xf32>) {
    ^bb0(%in: f32, %in_13: f32, %out: f32):
      %21 = arith.addf %in, %in_13 : f32
      linalg.yield %21 : f32
    } -> tensor<64xf32>
    %18 = linalg.generic {indexing_maps = [#map, #map], iterator_types = ["parallel"]} ins(%17 : tensor<64xf32>) outs(%1 : tensor<64xf32>) {
    ^bb0(%in: f32, %out: f32):
      %21 = arith.cmpf ugt, %in, %cst_0 : f32
      %22 = arith.select %21, %in, %cst_0 : f32
      linalg.yield %22 : f32
    } -> tensor<64xf32>
    %transposed_12 = linalg.transpose ins(%cst_8 : tensor<72x64xf32>) outs(%6 : tensor<64x72xf32>) permutation = [1, 0] 
    %19 = linalg.vecmat ins(%18, %transposed_12 : tensor<64xf32>, tensor<64x72xf32>) outs(%8 : tensor<72xf32>) -> tensor<72xf32>
    %20 = linalg.generic {indexing_maps = [#map, #map, #map], iterator_types = ["parallel"]} ins(%19, %cst_9 : tensor<72xf32>, tensor<72xf32>) outs(%7 : tensor<72xf32>) {
    ^bb0(%in: f32, %in_13: f32, %out: f32):
      %21 = arith.addf %in, %in_13 : f32
      linalg.yield %21 : f32
    } -> tensor<72xf32>
    return %14, %20 : tensor<72xf32>, tensor<72xf32>
  }
}
